DeepFP_gnn-main/model/deepfp.pt (torch, 424236 bytes, 16 tensors)

weight f4 [96, 9]
-0.6919416 -0.7067215 -0.20348524 1.4596429 -0.17915449 -0.088102534 -0.15115923 -0.0938471
-0.7420127 0.10173258 -0.24655932 -0.24074505 -0.34648162 -0.7395139 -0.049999464 0.04629055
0.19552103 0.2914643 0.23508976 0.19708574 0.29093924 -0.026229037 1.9825118 0.03770839
0.07587985 -0.18271187 -0.25106034 -0.12897798 0.21668826 0.24042958 0.17332865 0.36840093
0.31548864 -0.076175235 0.10282778 0.003845183 -0.53173953 -0.44539198 -0.13298613 1.2507954
-0.089088194 -0.039794743 -0.0032128906 -0.32612216 -0.48503205 -0.20945394 -0.24186702 -0.080418624
-0.11742752 0.65261036 0.09214382 -0.31137416 -0.24679238 -0.28922483 -0.26565304 -0.27079496
0.037084807 -0.4081212 -0.12244012 -0.3047739 0.2067864 0.114242174 0.4416968 0.41993204
-0.35381705 -0.015121231 -0.1117118 -0.628841 0.08973324 -0.19232339 -0.32490024 -0.25740695
-0.20492497 0.0034595772 0.21770209 -0.054539405 0.021881955 0.053877268 -0.11401387 -0.084722936
-0.15514225 0.33357576 -0.49522638 -0.12523204 0.008871105 -0.24335603 -0.25279275 -0.20480074
0.13166635 -0.20548292 -0.067322895 -0.22288363 -0.14023736 -0.5177589 -0.23686332 0.10381483
-0.21927205 0.09617329 0.7991236 -0.07268912 0.07858411 -0.34164846 -0.20759599 1.4534639
0.022264171 -0.4414996 -0.31452188 -0.20640376 -0.106417924 -0.0018513844 -0.30388844 0.49824354
0.1067162 -0.31791306 -0.19541155 -0.30411288 0.44125274 0.18287814 0.050321173 0.026199829
0.050770663 0.18152699 -0.19355917 0.13237062 -0.30535004 -0.17973214 0.47047278 -0.2037494
0.00858285 -0.09101998 -0.377527 0.07497246 -0.09814655 -0.18860164 0.0050833966 0.00225619
0.051563714 0.20741175 -0.03772884 -0.8147347 -0.013759345 -0.020856505 -0.03471511 0.059269197
-0.1844816 0.025973324 0.20424262 -0.32002687 -0.0016324879 -0.027017124 -0.27824008 0.1553154
-0.076361075 -0.17394146 -0.24224924 0.25090587 -0.2263327 -0.051384643 -0.20300597 -0.091992244
0.26252714 -0.0640768 0.6939927 0.1414654 0.024649804 -0.91250706 0.79942775 0.104746975
0.06709844 -0.17254102 0.30129695 0.09214405 0.2965925 1.0581878 -0.45805815 0.009385265
-0.18189889 -0.2740368 0.042661402 0.79499924 -0.22547916 -0.082654275 0.4031014 -0.6194418
-0.14697014 -0.30853215 -0.33031458 0.10316079 0.6842214 -0.3045646 0.030336574 -0.22594635
0.19704068 -0.08838234 0.07629537 0.23608825 0.22091262 -0.058005646 0.23732656 -0.04398783
0.05872467 0.4292974 -1.6820416 -0.03350807 -0.27233106 -0.24080971 0.0263346 0.085463285
-0.23585632 -0.31213507 -0.23414534 -0.69272965 -0.054324474 -0.23054606 0.16348937 0.2512736
-0.16287132 -0.20736365 0.30676293 0.7339938 1.6290064 0.026025796 0.3198016 -0.1566306
-0.46494055 -0.16625412 0.19616671 0.67890316 -0.29720968 0.08672402 -0.27187985 -0.10242807
0.07667599 -0.16982408 -0.37378946 -0.24023353 0.06021225 0.43159303 0.18234393 0.0053386968
0.057788026 -0.20225492 -0.31206805 -0.11528342 -0.027443606 0.4223237 0.49220207 0.036201358
-0.047312733 0.114492424 -0.026284477 0.013206684 0.34126595 -0.28894556 -0.18237 0.61626714
00000000: 1623 31bf b3eb 34bf 6f5e 50be 94d5 ba3f
00000010: 4674 37be 1a6f b4bd 7cc9 1abe e932 c0bd
00000020: 8bf4 3dbf 2c59 d03d 0c7a 7cbe df85 76be
00000030: 0a66 b1be c850 3dbf 3dcc 4cbd 299b 3d3d
00000040: aa36 483e cf3a 953e 5fbb 703e d8d0 493e
00000050: fdf5 943e 47de d6bc f2c2 fd3f 1d74 1a3d
00000060: e566 9b3d d218 3bbe fb8a 80be ce12 04be
00000070: 87e3 5d3e 2c33 763e 117d 313e 0c9f bc3e
00000080: ba87 a13e c301 9cbd 5f97 d23d 77ff 7b3b
00000090: 1520 08bf 6b0a e4be 842d 08be 101a a03f
000000a0: df73 b6bd d0ff 22bd 5c8f 52bb 7cf9 a6be
000000b0: 1f56 f8be 187b 56be fdab 77be 85b2 a4bd
000000c0: d77d f0bd 7911 273f e6b5 bc3d 6f6c 9fbe
000000d0: 24b7 7cbe 4715 94be ad03 88be a3a5 8abe
000000e0: 3de6 173d 43f5 d0be e3c1 fabd 530b 9cbe
000000f0: d0bf 533e cdf7 e93d 1526 e23e 5501 d73e
00000100: 8227 b5be 0abf 77bc 28c9 e4bd b9fb 20bf
00000110: 10c6 b73d 6cf0 44be 5359 a6be d8ca 83be
00000120: dad7 51be 13ba 623b 4ced 5e3e b664 5fbd
00000130: c941 b33c 69ae 5c3d 1b80 e9bd 3883 adbd
00000140: 9cdd 1ebe 71ca aa3e 508e fdbe d43c 00be
00000150: 1c58 113c 5332 79be 0d6e 81be 49b7 51be
00000160: 8bd3 063e 1d6a 52be 96e0 89bd 9b3b 64be
00000170: 629a 0fbe d98b 04bf 4c8c 72be df9c d43d
00000180: da88 60be 80f6 c43d 5d93 4c3f 09de 94bd
00000190: b5f0 a03d 8cec aebe 0b94 54be 1b0b ba3f
000001a0: 5a63 b63c 3c0c e2be 0309 a1be 825b 53be
000001b0: a4f1 d9bd 27aa f2ba 4497 9bbe c719 ff3e
000001c0: 068e da3d 80c5 a2be f719 48be afb4 9bbe
000001d0: e1eb e13e 6844 3b3e 931d 4e3d 06a1 d63c
000001e0: e6f4 4f3d 36e2 393e 6034 46be 2a8c 073e
000001f0: d756 9cbe b40b 38be cfe1 f03e afa3 50be
00000200: 159f 0c3c af68 babd 384b c1be 298b 993d
00000210: 0f01 c9bd ca20 41be 9f92 a63b 96dc 133b
00000220: 7934 533d bf63 543e 8e89 1abd 7492 50bf
00000230: e06e 61bc 43db aabc 6e31 0ebd 42c4 723d
00000240: bfe8 3cbe 02c6 d43c fa24 513e 90da a3be
00000250: 34f9 d5ba 0453 ddbc 7c75 8ebe 000b 1f3e
00000260: 3263 9cbd b61d 32be 2f10 78be bc76 803e
00000270: c2c3 67be b478 52bd cce0 4fbe 6e66 bcbd
00000280: f569 863e b33a 83bd 81a9 313f 4edc 103e
00000290: 63ee c93c 109a 69bf 4ca7 4c3f 9585 d63d
000002a0: e86a 893d 98ae 30be 9843 9a3e 05b6 bc3d
000002b0: f9da 973e b372 873f 9986 eabe a8c4 193c
000002c0: b443 3abe 8d4e 8cbe b9bd 2e3d 1285 4b3f
000002d0: 02e4 66be a546 a9bd 4f63 ce3e bd93 1ebf
000002e0: 577f 16be edf7 9dbe fe1e a9be f745 d33d
000002f0: 2229 2f3f e4ef 9bbe 6884 f83c 7b5e 67be
00000300: 08c5 493e cd01 b5bd bf40 9c3d 1ec1 713e
00000310: eb36 623e 5497 6dbd bc05 733e 952c 34bd
00000320: 4889 703d decc db3e 244d d7bf c23f 09bd
00000330: fa6e 8bbe d296 76be a9bb d73c 6007 af3d
00000340: 5284 71be 2bd0 9fbe ccc3 6fbe bb56 31bf
00000350: 5783 5ebd 4414 6cbe c269 273e efa6 803e
00000360: bdc7 26be 2357 54be 0810 9d3e 05e7 3b3f
00000370: 4883 d03f 0d34 d53c 09bd a33e c663 20be
00000380: b00c eebe 853e 2abe eddf 483e 99cc 2d3f
00000390: de2b 98be 5d9c b13d d633 8bbe cfc5 d1bd
000003a0: 4d08 9d3d 5de6 2dbe 5561 bfbe c7ff 75be
000003b0: 1fa1 763d c3f9 dc3e 5eb8 3a3e 3cf0 ae3b
000003c0: 23b3 6c3d ea1b 4fbe 62c7 9fbe b719 ecbd
000003d0: 6ad1 e0bc d03a d83e e901 fc3e e047 143d
000003e0: ffca 41bd 017b ea3d 8b52 d7bc d960 583c
000003f0: 69ba ae3e acf0 93be 34bf 3abe afc3 1d3f

bias f4 [96]
0.7083083 0.029405376 -0.20548348 -0.32710883 0.5041021 0.20137334 -0.04786054 0.3444353
-0.15740694 0.34862924 -0.3519109 0.05422613 -0.026277497 -0.35805145 -0.0005479418 0.119444005
0.0057011344 -0.16389106 -0.37927583 -0.439579 -0.05011914 -0.27796662 0.038768217 0.038951356
0.1859014 -0.28675574 0.16537988 0.018593824 0.25886264 -0.12707627 0.28052422 -0.44499686
-0.2205172 0.30774024 0.015174281 0.2413007 -0.045281857 0.28086707 -0.16242285 0.0027255516
0.44932464 0.041105628 -0.021434944 -0.0062811556 0.05973698 -0.2676633 -0.3300847 -0.21324743
-0.098653615 0.007864653 0.43100107 0.2795254 0.01276611 0.22990224 0.4494765 -0.34858066
-0.17437865 0.12828565 -0.33560762 0.04940804 0.31809765 -0.32005465 -0.16751888 -0.28095728
0.3270861 0.027127435 -0.3671819 -0.4540487 0.13195977 0.032957613 0.33902022 -0.4380671
-0.1178346 -0.04816808 0.07287138 0.035954364 -0.21930726 -0.35613862 -0.012429655 0.1802425
0.060055114 -0.31461895 -0.17078438 -0.40186018 -0.3698403 -0.100436 0.07479403 -0.21111171
-0.2922522 -0.09962893 0.042256065 -0.019894257 -0.19341299 -0.3685807 0.11606862 -0.10634162
00000000: b153 353f 8be3 f03c 436a 52be cf7a a7be
00000010: d60c 013f d034 4e3e 6a09 44bd d359 b03e
00000020: 492f 21be 887f b23e aa2d b4be 381c 5e3d
00000030: e843 d7bc 8552 b7be c0a3 0fba 0f9f f43d
00000040: 95d0 ba3b 0fd3 27be 7130 c2be 8010 e1be
00000050: ba49 4dbd a451 8ebe 6ccb 1e3d 758b 1f3d
00000060: f05c 3e3e a6d1 92be 5859 293e 1352 983c
00000070: a589 843e 4820 02be dfa0 8f3e a1d6 e3be
00000080: 43cf 61be 2190 9d3e 8c9d 783c 8817 773e
00000090: 7879 39bd cfcd 8f3e 2d52 26be 2b9f 323b
000000a0: e10d e63e 605e 283d 5698 afbc 27d2 cdbb
000000b0: c3ae 743d 2a0b 89be dd00 a9be 895d 5abe
000000c0: e80a cabd bfda 003c 2cac dc3e f41d 8f3e
000000d0: f228 513c 7e6b 6b3e c921 e63e 2a79 b2be
000000e0: 5190 32be 505d 033e c3d4 abbe 1660 4a3d
000000f0: b2dd a23e 34de a3be 128a 2bbe a2d9 8fbe
00000100: d477 a73e 5b3a de3c 44ff bbbe 1279 e8be
00000110: 7620 073e 90fe 063d 0f94 ad3e 554a e0be
00000120: 4453 f1bd e54b 45bd 973d 953d e244 133d
00000130: 1592 60be cd57 b6be c0a5 4bbc 7d91 383e
00000140: 5afc 753d bc15 a1be 1ae2 2ebe 9ec0 cdbe
00000150: b55b bdbe 64b1 cdbd 9d2d 993d ab2d 58be
00000160: 15a2 95be 410a ccbd b214 2d3d 48f9 a2bc
00000170: 0e0e 46be 9cb6 bcbe 62b5 ed3d a3c9 d9bd

weight f4 [1, 96, 96]
-0.20689565 0.08129742 -0.11993952 -0.023730017 -0.025592547 0.019522889 -0.010384804 0.108319215
0.035714697 0.12908772 0.16483809 -0.3110554 0.1742812 -0.23382357 -0.24605344 -0.015280133
0.322627 0.19788963 -0.18259083 -0.09107258 -0.23062536 0.1777524 -0.13518451 -0.1642147
-0.19186841 0.124670334 0.09968092 0.2980016 -0.09644098 -0.1658771 0.08282147 -0.31299818
-0.18689196 0.21616858 0.416811 -0.13746071 0.09258463 -0.010708804 -0.006697914 -0.17047419
-0.06577178 0.07379788 -0.079321496 0.06986923 -0.06253389 0.13363431 0.0086663095 -0.09948137
-0.024862336 0.06330102 0.15137033 -0.26471883 0.27240252 -0.24144931 0.09600189 0.09359005
-0.069348425 0.2690114 -0.09891775 0.15739392 -0.18074663 -0.37972835 -0.1199856 -0.16591407
-0.052913684 0.015060662 -0.049002152 0.20301045 0.042844478 -0.0462654 -0.053332925 -0.3539516
0.23038848 -0.20076908 -0.19629502 -0.1140018 0.07582139 0.45326346 0.50145644 -0.28164822
0.0988632 0.20668629 0.3279438 -0.15210342 -0.17915873 -0.033906016 0.0036253596 0.049727477
0.18825123 0.15943389 -0.039053585 0.01443369 -0.04099473 -0.08711913 -0.059881844 -0.13144504
0.043119244 0.06158201 0.12283141 -0.048913244 -0.058892913 0.09884596 -0.03795482 -0.13332754
-0.13555123 0.025248988 -0.13163006 0.098098 0.12526856 -0.018300071 0.1547349 0.05142058
-0.057082217 -0.18435873 -0.064139456 0.10240918 0.04644677 -0.05580969 -0.06639924 -0.03691176
-0.028852811 0.07117153 0.033236418 0.019083409 -0.13856034 -0.016988732 -0.12005851 -0.033775862
0.09141627 -0.04592757 -0.18785256 0.047881834 0.120222345 0.041365776 0.06738364 0.18864441
-0.0006759304 0.0067366166 0.032786015 0.03825995 0.017688086 -0.03576949 0.059078813 -0.100960255
0.05085588 0.021278836 0.0038521523 0.07719648 -0.07028807 0.0053972295 0.040252935 -0.011068254
0.042774715 -0.047443 -0.07332183 -0.0021647625 0.088887066 -0.061506193 0.027067592 -0.026324429
-0.021902807 0.07435509 0.106300086 -0.10410287 0.0031534778 -0.034013037 -0.013791934 0.12099305
0.16115801 -0.02405303 -0.077397555 0.06043585 0.073349334 -0.02932451 -0.03911327 0.062225025
-0.0066487095 -0.17074737 -0.03179391 0.17452894 -0.03457575 0.0088676205 -0.042940907 -0.060479913
0.018704588 -0.101581074 -0.010468233 0.0064814095 0.018881988 0.028019983 -0.019897386 0.053653985
-0.016000772 0.11004913 -0.21257438 -0.0071288976 0.26485887 -0.20463409 -0.055381197 -0.03208781
0.03727419 -0.28085956 -0.076094344 0.25609973 -0.005744574 0.109921865 0.15426135 -0.2033556
0.015404888 0.11040023 0.1637622 -0.072488904 0.065233365 -0.045528404 0.34708458 -0.20673205
0.10308218 -0.28231153 -0.03929184 -0.014789407 0.06500598 -0.060819935 0.042037852 0.053488065
0.02944364 -0.18321742 -0.011154641 -0.16242303 0.015783988 -0.014606979 -0.13421276 -0.23185545
-0.12300303 0.15039702 -0.051524207 -0.10360467 0.25191003 0.046932768 0.13575415 0.26223743
0.15803412 -0.26959097 0.016646817 -0.011080798 0.05825149 0.032154877 -0.027221879 -0.0009931118
0.20076676 0.13638271 -0.119051486 -0.18035398 0.09285725 -0.02802778 0.077406235 -0.19385797
00000000: 74dc 53be 437f a63d daa2 f5bd 7465 c2bc
00000010: 76a7 d1bc 77ee 9f3c 0625 2abc 77d6 dd3d
00000020: 9349 123d 922f 043e 51cb 283e a742 9fbe
00000030: c576 323e 726f 6fbe 6ff5 7bbe 8659 7abc
00000040: 5e2f a53e 94a3 4a3e 17f9 3abe 4384 babd
00000050: 0e29 6cbe ba04 363e cf6d 0abe e627 28be
00000060: 2779 44be 2953 ff3d 8325 cc3d aa93 983e
00000070: d982 c5bd b0db 29be 4e9e a93d 4c41 a0be
00000080: 9b60 3fbe 4c5b 5d3e 4068 d53e 80c2 0cbe
00000090: 039d bd3d fb73 2fbc 2d7a dbbb c990 2ebe
000000a0: 5bb3 86bd 5823 973d 4f73 a2bd 9917 8f3d
000000b0: c511 80bd 6fd7 083e 23fd 0d3c e3bc cbbd
000000c0: 19ac cbbc f7a3 813d d300 1b3e 3a89 87be
000000d0: 5878 8b3e 7d3e 77be a49c c43d 24ac bf3d
000000e0: 8c06 8ebd ddbb 893e 6495 cabd df2b 213e
000000f0: a515 39be c16b c2be 03bb f5bd 61e5 29be
00000100: 05bc 58bd ffc0 763c 7bb6 48bd f9e1 4f3e
00000110: b17d 2f3d ca80 3dbd a073 5abd 2539 b5be
00000120: f5ea 6b3e 6996 4dbe 9001 49be c779 e9bd
00000130: 3f48 9b3d 2612 e83e 735f 003f 3234 90be
00000140: ca78 ca3d 92a5 533e 40e8 a73e 00c1 1bbe
00000150: 6375 37be 09e1 0abd 7197 6d3b 0aaf 4b3d
00000160: eec4 403e a342 233e a7f6 1fbd 497b 6c3c
00000170: 17ea 27bd 846b b2bd aa46 75bd 8799 06be
00000180: ce9d 303d 6b3d 7c3d 098f fb3d 4159 48bd
00000190: b239 71bd c06f ca3d 8376 1bbd 0487 08be
000001a0: f1cd 0abe f7d6 ce3c 08ca 06be 9be7 c83d
000001b0: 6746 003e 08ea 95bc d372 1e3e 639e 523d
000001c0: 0bcf 69bd 89c8 3cbe 8c5b 83bd e7bb d13d
000001d0: f83e 3e3d b498 64bd 53fc 87bd c930 17bd
000001e0: bb5c ecbc 61c2 913d e922 083d cf54 9c3c
000001f0: c3e2 0dbe f42b 8bbc 3ce1 f5bd 8f58 0abd
00000200: 7438 bb3d 8c1e 3cbd 6c5c 40be be1f 443d
00000210: 2237 f63d 296f 293d 6f00 8a3d 002c 413e
00000220: ec30 31ba d6be dc3b a14a 063d 77b6 1c3d
00000230: 9be6 903c 0783 12bd a0fc 713d 40c4 cebd
00000240: 414e 503d f450 ae3c 6474 7c3b 3019 9e3d
00000250: 31f3 8fbd 3edb b03b 43e0 243d 9f57 35bc
00000260: 8a34 2f3d 9753 42bd c129 96bd b0de 0dbb
00000270: 6c0a b63d ebed 7bbd dbbc dd3c 54a6 d7bc
00000280: 846d b3bc 7b47 983d dcb3 d93d e333 d5bd
00000290: 94aa 4e3b 4151 0bbd 90f7 61bc 34cb f73d
000002a0: 9b06 253e dc0a c5bc 9c82 9ebd 958b 773d
000002b0: 2d38 963d f439 f0bc 3c35 20bd abdf 7e3d
000002c0: 6bdd d9bb 66d8 2ebe 553a 02bd b7b7 323e
000002d0: 4d9f 0dbd 7f49 113c cee2 2fbd c9b9 77bd
000002e0: 5d3a 993c bd09 d0bd f482 2bbc 0162 d43b
000002f0: 66ae 9a3c 2a8a e53c d8ff a2bc 48c4 5b3d
00000300: 0d14 83bc 7061 e13d 19ad 59be 8799 e9bb
00000310: 959b 873e 998b 51be 65d7 62bd 826e 03bd
00000320: d2ac 183d d3cc 8fbe 5ad7 9bbd 811f 833e
00000330: fb3c bcbb b71e e13d b0f6 1d3e 733c 50be
00000340: c964 7c3c 8419 e23d 47b1 273e 1075 94bd
00000350: 1299 853d fe7b 3abd 12b5 b13e 91b1 53be
00000360: c01c d33d 238b 90be 7bf0 20bd 454f 72bc
00000370: db21 853d 531e 79bd e22f 2c3d 4d16 5b3d
00000380: ca33 f13c 599d 3bbe f5c1 36bc 3952 26be
00000390: 6c4d 813c 1c52 6fbc 126f 09be 846b 6dbe
000003a0: 03e9 fbbd ad01 1a3e 0c0b 53bd af2e d4bd
000003b0: 5afa 803e 933c 403d 2303 0b3e fc43 863e
000003c0: b2d3 213e d407 8abe e85e 883c 3c8c 35bc
000003d0: 1d99 6e3d d5b4 033d 6b00 dfbc 4d2b 82ba
000003e0: cd95 4d3e e9a7 0b3e 44d1 f3bd b7ae 38be
000003f0: f12b be3d 849a e5bc 2987 9e3d b482 46be

weight_ih f4 [288, 96]
0.010579928 0.0819603 0.03681218 -0.03531295 -0.061057173 -0.0730598 -0.038003556 0.063099965
-0.08608775 -0.020978656 0.08642637 -0.057741575 -0.07296661 0.0832079 -0.060188103 -0.0878058
0.031885218 0.032794382 -0.013017627 0.031818427 0.09819077 0.063506864 -0.025746457 0.051620286
0.06258523 -0.05975225 0.045033477 0.0022999423 0.01651383 0.010185121 -0.016682774 -0.023473514
-0.066354506 0.07260761 0.07160271 0.08812393 -0.00918608 0.06346577 -0.009169221 -0.03667094
-0.0117309205 -0.020571118 0.040531646 0.09636784 0.06498196 -0.010127435 0.034034017 -0.023582863
-0.09088256 -0.083292834 -0.05340958 -0.094955154 -0.06316333 -0.025741074 0.02290756 0.043380424
-0.027451709 -0.02705763 -0.07313649 0.10299869 0.07617125 -0.06038494 -0.058941416 -0.05965748
-0.094769664 -0.0077143507 -0.024573235 0.03372595 0.10467181 -0.0729313 -0.005200688 -0.09376037
0.058005463 0.04134596 0.0720934 -0.08093308 -0.0008795612 -0.020425402 -0.03473528 0.053541053
0.07458191 0.044128265 -0.017557092 0.013244715 0.022997204 0.023282994 0.05889246 -0.016370729
0.042020716 -0.030552976 -0.095615394 -0.033487946 0.020849641 -0.10312281 0.062023893 -0.08682473
-0.07289323 -0.089087516 0.051026218 -0.0435065 0.05304834 -0.10973912 -0.005124604 -0.054025672
-0.012746984 0.060657673 0.004685411 0.0065843 -0.010017718 0.0783981 -0.10027079 0.046960052
0.022089075 -0.13082969 -0.006389023 0.039134786 0.056223396 -0.07926404 -0.07572705 -0.11641414
-0.0400879 0.02749961 -0.023440868 -0.07323645 -0.0665442 0.13788387 0.08426437 0.008756852
-0.006647702 -0.01767222 -0.016067557 0.022650974 0.06297696 0.106648296 0.0649173 -0.08608656
0.060959555 -0.012294447 0.05413109 -0.09332666 -0.04962166 0.059808668 -0.08209121 0.0147595545
-0.046599314 0.06554898 -0.11002865 0.055548552 -0.09440862 -0.06063302 -0.07168116 -0.04819938
-0.007214022 0.0043474394 -0.015991189 0.05113947 -0.016228085 0.05983808 -0.00050349394 -0.07290008
0.02824675 -0.08441184 -0.09561326 0.04293915 0.06565835 -0.10122782 0.0054923873 0.10606718
-0.0414342 -0.027199078 -0.05992786 -0.065152965 0.013282769 -0.05370696 -0.013729976 0.09161618
0.06268933 -0.030934915 0.03801077 0.0461768 0.036189657 -0.03162465 -0.04019344 0.015222708
0.027026374 0.029796543 0.06798623 -0.008142641 -0.073255636 -0.100404374 0.06885774 -0.046194844
-0.08315949 0.037699685 0.048918806 0.058303654 -0.029972097 -0.005581187 0.035460796 -0.034096763
0.027920488 -0.048606012 -0.042919416 0.0689665 0.08439185 0.013168632 -0.07362544 0.072462894
0.022023534 -0.045861505 -0.076921046 -0.04285339 0.08358612 0.010257276 -0.06530537 0.068240985
0.088456295 -0.067170195 -0.016126473 0.045873318 -0.022375558 -0.0989522 0.071152695 0.10506399
0.020135866 0.084299944 0.085143656 -0.012720693 -0.09574325 0.08353633 0.0833671 -0.03541084
-0.014648278 0.037275538 -0.044875108 0.0917303 -0.041383203 -0.065010875 0.016010968 0.014146627
-0.046787806 -0.063075975 -0.068370566 0.001196246 -0.07352645 0.013369593 -0.093702175 0.07607981
0.010900511 0.08622009 -0.050463703 -0.008672059 0.014213626 -0.01947652 0.050101325 -0.07886062
00000000: 6f57 2d3c cdda a73d 5ec8 163d 50a4 10bd
00000010: 1617 7abd 60a0 95bd 9ea9 1bbd 8e3a 813d
00000020: c64e b0bd 6edb abbc 4f00 b13d 6e82 6cbd
00000030: 856f 95bd e768 aa3d cd87 76bd 87d3 b3bd
00000040: 139a 023d 6753 063d e347 55bc 0a54 023d
00000050: 3e18 c93d e30f 823d 3cea d2bc cb6f 533d
00000060: af2c 803d c6be 74bd 0675 383d a1ba 163b
00000070: 0348 873c 7edf 263c 50aa 88bc 874b c0bc
00000080: dfe4 87bd 4cb3 943d 71a4 923d 527a b43d
00000090: 3681 16bc 57fa 813d 803a 16bc 4534 16bd
000000a0: 0c33 40bc c384 a8bc 8304 263d 815c c53d
000000b0: 4315 853d 8bed 25bc 4167 0b3d d930 c1bc
000000c0: a320 babd 6f95 aabd 01c4 5abd d977 c2bd
000000d0: c75b 81bd f2de d2bc a3a8 bb3c acaf 313d
000000e0: 68e2 e0bc f6a7 ddbc 96c8 95bd faf0 d23d
000000f0: acff 9b3d 3356 77bd 8e6c 71bd 675b 74bd
00000100: 9916 c2bd aac8 fcbb cf4d c9bc 3924 0a3d
00000110: 2d5e d63d 015d 95bd 886a aabb 7005 c0bd
00000120: 2397 6d3d 625a 293d b4a5 933d 3ec0 a5bd
00000130: 5a92 66ba 2c53 a7bc 9546 0ebd dd4d 5b3d
00000140: 67be 983d d7bf 343d e4d3 8fbc 5c00 593c
00000150: a264 bc3c fabb be3c 3839 713d e81b 86bc
00000160: ea1d 2c3d 3c4a fabc 01d2 c3bd a82a 09bd
00000170: decc aa3c 0d32 d3bd c40c 7e3d 2ad1 b1bd
00000180: 0c49 95bd 8473 b6bd de00 513d df33 32bd
00000190: 3749 593d e7be e0bd 4bec a7bb 064a 5dbd
000001a0: bad8 50bc 2e74 783d 1488 993b 1dc1 d73b
000001b0: 5b21 24bc 2f8f a03d c65a cdbd 2f59 403d
000001c0: 26f4 b43c 38f8 05be 025b d1bb cc4b 203d
000001d0: 814a 663d 2f55 a2bd c916 9bbd 896a eebd
000001e0: 3633 24bd dd46 e13c 1007 c0bc fefc 95bd
000001f0: 5348 88bd 6e31 0d3e cc92 ac3d e678 0f3c
00000200: f7d4 d9bb 55c5 90bc 1ca0 83bc 898e b93c
00000210: 10fa 803d 6c6a da3d 5df3 843d 264e b0bd
00000220: bab0 793d a66e 49bc 90b8 5d3d 0c22 bfbd
00000230: 1540 4bbd eff9 743d 701f a8bd 0fd2 713c
00000240: ecde 3ebd 8b3e 863d b356 e1bd e186 633d
00000250: 4e59 c1bd 545a 78bd 92cd 92bd b76c 45bd
00000260: 9a63 ecbb f774 8e3b f4ff 82bc 9f77 513d
00000270: c3f0 84bc c618 753d e8fc 03ba a34c 95bd
00000280: ba65 e73c 1de0 acbd e3d0 c3bd f6e0 2f3d
00000290: e377 863d 8850 cfbd 7cf9 b33b c039 d93d
000002a0: e8b6 29bd 9ad0 debc ea76 75bd eb6e 85bd
000002b0: f99f 593c d4fb 5bbd b1f3 60bc 44a1 bb3d
000002c0: 4363 803d 386b fdbc 2eb1 1b3d e223 3d3d
000002d0: 9b3b 143d d988 01bd e0a1 24bd aa68 793c
000002e0: 6a66 dd3c e117 f43c 5d3c 8b3d b668 05bc
000002f0: 0d07 96bd cfa0 cdbd 4905 8d3d ce36 3dbd
00000300: 864f aabd fc6a 1a3d 165f 483d d0cf 6e3d
00000310: 0b88 f5bc 64e2 b6bb 573f 113d 0ca9 0bbd
00000320: 82b9 e43c 1917 47bd 45cc 2fbd 4f3e 8d3d
00000330: a2d5 ac3d 3fc1 573c efc8 96bd 6d67 943d
00000340: b36a b43c 46d9 3bbd c888 9dbd 0987 2fbd
00000350: 332f ab3d 220e 283c d2be 85bd eec1 8b3d
00000360: 9328 b53d 8790 89bd aa1b 84bc a9e5 3b3d
00000370: f24c b7bc 73a7 cabd 81b8 913d ca2b d73d
00000380: f9f3 a43c 73a5 ac3d cc5f ae3d 746a 50bc
00000390: 0915 c4bd 1815 ab3d 5fbc aa3d f50a 11bd
000003a0: 55ff 6fbc 3cae 183d f6ce 37bd 18dd bb3d
000003b0: 6f81 29bd 6c24 85bd 6f29 833c 41c7 673c
000003c0: 92a4 3fbd fa2d 81bd de05 8cbd 5bcb 9c3a
000003d0: 0995 96bd 230c 5b3c ede6 bfbd bbcf 9b3d
000003e0: 0f98 323c 2994 b03d 07b3 4ebd 4015 0ebc
000003f0: 45e0 683c 398d 9fbc 0c37 4d3d ad81 a1bd

weight_hh f4 [288, 96]
-0.0029851706 0.03512073 0.095317304 -0.071572125 0.025843589 0.010837465 -0.09269018 0.023190064
0.005498493 0.05940004 -0.041862912 0.0763763 -0.06833802 -0.030674838 0.08613001 0.047919277
0.030795181 0.09013446 0.06270037 0.069078565 -0.102333225 0.021478316 -0.08465097 0.040574614
0.043391597 -0.08587212 0.021363605 -0.08841182 0.0793191 -0.051386967 0.09965916 0.052992992
-0.04725991 0.07068367 0.08300682 0.071425386 0.081462085 -0.06059699 -0.09171595 -0.0018389865
-0.010190814 0.050880887 -0.03146442 -0.038212888 -0.059734546 -0.015285088 0.057180244 0.07114637
-0.09705905 0.005776983 -0.04357327 0.009984826 0.012871687 -0.059504587 -0.023528567 -0.0027644727
0.003298897 -0.053013705 0.0655138 -0.06731716 -0.01518386 -0.0102324 0.095605366 -0.018264972
-0.066973716 -0.06628798 0.024034439 -0.034371924 -0.09187802 -0.07730537 -0.06432284 -0.04838623
0.042029392 -0.023252033 -0.046991907 0.02137515 0.088051535 -0.013653595 -0.0316832 -0.06715127
0.021970842 -0.050921932 0.053571697 0.01268759 -0.003488066 0.03430079 -0.029474458 0.07926237
-0.06559522 -0.008939726 0.027586425 -0.02091047 0.015079075 0.101234846 -0.00027623263 -0.051299687
-0.078868754 -0.05460357 0.056717698 0.06229968 0.027330536 0.09781519 0.09289572 0.026702791
0.10071987 0.012485822 0.092821464 0.0011518473 -0.013563409 0.0012286827 -0.058935985 0.07432312
-0.08508902 0.0022109223 0.045406166 0.114283346 0.12980609 0.09079775 -0.03203895 -0.09135964
0.06994424 -0.025368255 0.052585144 0.042519875 -0.04330682 -0.048043568 0.09841745 0.053192448
-0.009962119 -0.011924695 0.019293208 0.06263177 0.03510215 0.059523027 0.07575822 -0.017495971
0.022900226 0.019143473 -0.06938268 0.0021785768 -0.016290765 -0.0218509 0.020243227 0.10330349
-0.09972177 0.0914184 0.018502485 0.05412269 0.093300946 -0.03013076 -0.028572235 0.09239983
0.06311155 0.005623097 0.08275332 0.040549226 -0.10583725 -0.03172369 -0.021911385 -0.060417406
0.013824998 -0.014170367 -0.041527938 -0.08048583 0.06706695 -0.10366145 0.078251146 0.10084613
0.06673911 -0.0699362 -0.07849529 -0.09408993 -0.026229229 0.10211188 -5.1333318e-05 -0.046352684
0.07622427 0.07817103 0.00096052286 0.061382875 -0.07539487 0.016610013 0.091876514 0.033879425
-0.08984028 -0.052789602 0.027834551 0.060969546 0.03360475 -0.08938262 -0.079242334 0.04287598
0.066110946 -0.08550503 -0.058947433 -0.025127066 0.07469733 -0.07788761 0.08589928 0.07080807
-0.019579813 0.089188956 -0.0850783 0.09969439 -0.087647386 0.0825391 0.04587732 -0.032611158
0.048831884 0.042902566 -0.08318438 -0.007007564 0.086362146 -0.10111526 0.009736224 -0.009689994
-0.040923834 -0.0024531744 -0.10360311 -0.068317816 -0.031764936 -0.05464866 -0.047698885 -0.053617734
0.0039306763 -0.01753055 -0.06453009 -0.061485242 -0.029295797 -0.016562358 0.039142188 0.0029419204
0.039863292 0.09652999 0.08235649 -0.040757585 -0.016116848 0.02392421 0.05203542 -0.11187974
0.020773154 0.010282877 0.09563203 0.03279515 -0.032702353 0.08934036 0.096254386 0.05999584
-0.01586476 -0.0611954 -0.06425233 0.08030606 -0.035217807 0.096960366 0.098143935 0.004065005
00000000: daa2 43bb c1da 0f3d b835 c33d 6894 92bd
00000010: efb5 d33c 9f8f 313c 59d4 bdbd 17f9 bd3c
00000020: b42c b43b 754d 733d 7278 2bbd 2d6b 9c3d
00000030: cef4 8bbd cc49 fbbc ee64 b03d 0147 443d
00000040: 2d46 fc3c 6a98 b83d 0d69 803d 1079 8d3d
00000050: 1594 d1bd 4bf3 af3c 7d5d adbd 9131 263d
00000060: 63bb 313d b9dd afbd ba02 af3c 4211 b5bd
00000070: 0d72 a23d 247b 52bd 1a1a cc3d 2e0f 593d
00000080: 9b93 41bd 9ac2 903d 7bff a93d 7947 923d
00000090: 98d5 a63d 8d34 78bd 92d5 bbbd 260a f1ba
000000a0: 5ff7 26bc 7a68 503d d6e0 00bd 1e85 1cbd
000000b0: 36ac 74bd 4e6e 7abc d535 6a3d 30b5 913d
000000c0: e5c6 c6bd d94c bd3b e379 32bd 6597 233c
000000d0: c5e3 523c 15bb 73bd fbbe c0bc 282c 35bb
000000e0: 4f32 583b e624 59bd 192c 863d 94dd 89bd
000000f0: bac5 78bc cca5 27bc bfcc c33d 6ca0 95bc
00000100: 8429 89bd fec1 87bd dfe3 c43c 93c9 0cbd
00000110: 8b2a bcbd 4752 9ebd b1bb 83bd a430 46bd
00000120: 0327 2c3d 0c7b bebc 967a 40bd f01a af3c
00000130: 5d54 b43d 54b3 5fbc 3ec6 01bd 9b86 89bd
00000140: 32fc b33c 8493 50bd ff6d 5b3d 9cdf 4f3c
00000150: 0998 64bb fc7e 0c3d 6b74 f1bc 4f54 a23d
00000160: c956 86bd ee77 12bc edfc e13c 6f4c abbc
00000170: 390e 773c 3754 cf3d 51d3 90b9 9f1f 52bd
00000180: f185 a1bd fea7 5fbd d150 683d f32d 7f3d
00000190: 4ae4 df3c 5553 c83d 1c40 be3d d0bf da3c
000001a0: 3846 ce3d 5591 4c3c 2e19 be3d 95f9 963a
000001b0: 1039 5ebc c00b a13a dc66 71bd b836 983d
000001c0: 2743 aebd 1fe5 103b d1fb 393d 630d ea3d
000001d0: e3eb 043e 2cf4 b93d 463b 03bd c31a bbbd
000001e0: ed3e 8f3d 16d1 cfbc 8563 573d 5229 2e3d
000001f0: 7e62 31bd 55c9 44bd 178f c93d 53e0 593d
00000200: 2838 23bc cc5f 43bc ca0c 9e3c 1645 803d
00000210: 46c7 0f3d 6bce 733d 2027 9b3d b653 8fbc
00000220: 4199 bb3c c6d2 9c3c 8218 8ebd 74c6 0e3b
00000230: 3674 85bc a900 b3bc 20d5 a53c c890 d33d
00000240: ed3a ccbd 9239 bb3d 8692 973c c1af 5d3d
00000250: 9114 bf3d c9d4 f6bc 5210 eabc 1f3c bd3d
00000260: a140 813d f541 b83b 937a a93d f216 263d
00000270: 33c1 d8bd b3f0 01bd 817f b3bc 3e78 77bd
00000280: 3f82 623c d42a 68bc 3319 2abd c1d5 a4bd
00000290: 665a 893d 744c d4bd 2342 a03d 6a88 ce3d
000002a0: 84ae 883d b63a 8fbd 23c2 a0bd 39b2 c0bd
000002b0: aede d6bc 0920 d13d bb4e 57b8 50dc 3dbd
000002c0: 781b 9c3d 2218 a03d 99cb 7b3a 9c6c 7b3d
000002d0: a068 9abd b911 883c c129 bc3d 27c5 0a3d
000002e0: 2efe b7bd e939 58bd 4905 e43c 34bb 793d
000002f0: 22a5 093d 3c0e b7bd ce49 a2bd b99e 2f3d
00000300: 2d65 873d 431d afbd dd72 71bd 47d7 cdbc
00000310: eafa 983d 8a83 9fbd f6eb af3d d203 913d
00000320: d865 a0bc b3a8 b63d 883d aebd 932c cc3d
00000330: 7980 b3bd 420a a93d dbe9 3b3d 4793 05bd
00000340: f103 483d 9aba 2f3d 925c aabd b59f e5bb
00000350: a3de b03d 8415 cfbd af84 1f3c c8c2 1ebc
00000360: c09f 27bd 70c5 20bb de2d d4bd 36ea 8bbd
00000370: f31b 02bd 46d7 5fbd e85f 43bd 459e 5bbd
00000380: e7cc 803b 3a9c 8fbc 5a28 84bd f3d7 7bbd
00000390: bdfd efbc c8ad 87bc 8f53 203d 3ccd 403b
000003a0: b147 233d 84b1 c53d 85aa a83d 6df1 26bd
000003b0: 7b07 84bc b4fc c33c 1823 553d 3521 e5bd
000003c0: 762c aa3c 8379 283c bada c33d 3554 063d
000003d0: e7f2 05bd 14f8 b63d 0521 c53d 33be 753d
000003e0: d0f6 81bc 07a8 7abd ba96 83bd 8177 a43d
000003f0: 8c40 10bd 2893 c63d b0ff c83d bc33 853b

bias_ih f4 [288]
-0.020115782 0.06586536 0.020757057 0.11992333 -0.066381365 0.06564132 -0.0057322956 0.011154162
-0.029704506 0.0952962 0.064055316 9.447743e-05 0.19214442 0.038068455 0.017510457 0.026052311
0.02479272 -0.07555436 0.10892861 0.09133995 0.033839785 0.08930841 0.019377463 0.05579628
0.07221056 -0.072262995 -0.0788719 0.018663641 -0.088100895 -0.0817055 0.13242853 0.015194706
0.113112524 0.08613181 0.05496312 0.084780276 -0.025119081 0.03739467 -0.01763428 -0.0645054
-0.010870956 -0.054933134 -0.015853962 -0.044888996 -0.08420745 -0.056788646 -0.048160434 0.08289951
0.023598827 -0.031079277 -0.079296835 0.05643016 0.054063797 -0.0091794375 -0.05783861 -0.072777264
-0.016974416 0.077364415 0.073532164 0.099306986 -0.06135958 0.094683684 0.090844154 -0.068850495
-0.011140237 -0.0054711006 -0.054094743 0.0103516625 -0.028275695 -0.022011062 -0.097355105 0.061047394
0.01879857 0.023603465 -0.021593355 0.100375116 -0.08185624 -0.04161719 -0.0012341423 0.06502129
0.06832753 -0.0619094 0.072307415 -0.023797017 -0.015998315 -0.07311144 0.03446277 -0.020785982
0.14157918 0.051763866 0.10109477 0.1066544 -0.073235184 0.035126325 0.018992256 0.04063764
0.20745975 0.08172672 0.16049786 -0.027974278 -0.02717993 0.11869511 -0.06189116 0.07844257
0.0426482 0.018501418 0.022141064 -0.023314008 -0.19745658 -0.08006142 0.079825394 0.00088336074
-0.01800939 -0.020208016 0.013332544 -0.027428824 -0.044948336 0.02538315 -0.026173515 0.037173137
0.053813767 -0.052125063 -0.005539398 -0.115319885 -0.05528727 0.030992236 0.31843814 0.044457607
0.05518788 -0.049011473 -0.005808559 -0.017720224 0.059110157 -0.022444982 0.016012691 0.12278101
0.010313669 0.050336733 -0.020223055 -0.0033285152 -0.014119619 0.040424585 0.05630387 0.12059501
0.043087468 0.08994917 0.11898062 0.13068497 -0.023084404 0.012839973 0.08941686 0.018120486
-0.07714659 -0.0140683465 0.07409384 -0.009991886 0.11345549 0.12206528 0.074371494 0.077828445
0.16147777 0.10337244 -0.0111421095 -0.03697668 0.04418496 0.04622022 0.014626836 0.067305624
0.026303107 0.084791645 0.046049573 0.1428621 0.033454802 0.14496705 0.037716378 -0.0038796773
-0.06458172 -0.013505905 0.05276146 0.11785842 -0.008686427 -0.0033916505 0.089970075 0.108365476
-0.0022591834 -0.09328437 -0.058214255 -0.16187444 -0.044301115 -0.0818656 0.058301136 0.013720736
0.03418667 0.005342668 0.032997675 0.007116769 -0.007887765 0.14877775 0.03377855 -0.10864801
-0.17261234 0.27705836 0.050189175 -0.028641608 -0.50383717 0.17708035 -0.09027044 0.06385951
-0.043884613 0.02112109 -0.024490457 0.016717497 0.025469324 -0.59124273 0.11067771 0.18631804
0.06478576 0.07639484 -0.07723846 0.3753915 -0.1743767 -0.05253566 0.26018673 -0.052190535
-0.2839574 -0.05865865 -0.020718321 0.35201606 0.009995397 0.065310806 -0.048534192 0.0047889166
-0.1311978 -0.21903342 0.29402274 0.024965731 0.0038123685 0.12298819 0.09515646 -0.35753596
0.20252915 0.13415666 0.0037988734 0.01066772 -0.35619685 0.16876648 0.13473402 -0.09473445
0.09454842 -0.11060765 0.1532173 0.10228865 -0.0720308 -0.13344653 -0.18152305 -0.113305315
00000000: dac9 a4bc 6be4 863d b40a aa3c 5d9a f53d
00000010: f4f2 87bd f56e 863d fbd5 bbbb f2bf 363c
00000020: dd56 f3bc a72a c33d 6f2f 833d 2f22 c638
00000030: 82c1 443e abed 1b3d 1772 8f3c a86b d53c
00000040: 1a1a cb3c 3fbc 9abd f715 df3d 7110 bb3d
00000050: 969b 0a3d 54e7 b63d 7cbd 9e3c a48a 643d
00000060: 21e3 933d 9ffe 93bd 9787 a1bd 7ee4 983c
00000070: 3e6e b4bd 3755 a7bd 589b 073e 37f3 783c
00000080: 8aa7 e73d e065 b03d 0221 613d 48a1 ad3d
00000090: 88c6 cdbc 272b 193d c475 90bc 681b 84bd
000000a0: 181c 32bc 9101 61bd 2be0 81bc 86dd 37bd
000000b0: f574 acbd 369b 68bd e043 45bd 38c7 a93d
000000c0: 5452 c13c f899 febc 6166 a2bd 5023 673d
000000d0: 0072 5d3d 5a65 16bc 2ee8 6cbd 3f0c 95bd
000000e0: ee0d 8bbc 3c71 9e3d 0898 963d 7661 cb3d
000000f0: 2f54 7bbd 85e9 c13d 800c ba3d 7d01 8dbd
00000100: 8a85 36bc eb46 b3bb 7392 5dbd 059a 293c
00000110: 6ea2 e7bc 8b50 b4bc 1d62 c7bd d50c 7a3d
00000120: 75ff 993c 0e5c c13c 8ce4 b0bc 7891 cd3d
00000130: 3fa4 a7bd c976 2abd f2c2 a1ba e229 853d
00000140: 4eef 8b3d b694 7dbd e915 943d f6f1 c2bc
00000150: e60e 83bc 73bb 95bd d528 0d3d 5d47 aabc
00000160: 22fa 103e 5906 543d c60a cf3d 9f6d da3d
00000170: 54fc 95bd 9fe0 0f3d a695 9b3c a773 263d
00000180: 5470 543e 5760 a73d 8d59 243e 502a e5bc
00000190: 72a8 debc 6c16 f33d 9681 7dbd 80a6 a03d
000001a0: e1af 2e3d 4990 973c 2d61 b53c 05fd bebc
000001b0: 0f32 4abe 3ef7 a3bd 7f7b a33d 5691 673a
000001c0: 6e88 93bc 488b a5bc be70 5a3c 6ab2 e0bc
000001d0: bf1b 38bd 53f0 cf3c d769 d6bc dc42 183d
000001e0: d36b 5c3d 1781 55bd d783 b5bb d52c ecbd
000001f0: e874 62bd 6ee3 fd3c 530a a33e 2e19 363d
00000200: b00c 623d 41c0 48bd b955 bebb 012a 91bc
00000210: 7e1d 723d 8ade b7bc 0c2d 833c 9c74 fb3d
00000220: aafa 283c e42d 4e3d d2aa a5bc 3823 5abb
00000230: f955 67bc 4094 253d e39e 663d 84fa f63d
00000240: 7c7c 303d 4537 b83d 1cac f33d 48d2 053e
00000250: 811b bdbc c05e 523c 3020 b73d 6a71 943c
00000260: 08ff 9dbd ec7e 66bc 83be 973d 02b5 23bc
00000270: 5a5b e83d 5dfd f93d 1550 983d 8564 9f3d
00000280: 6e5a 253e eeb4 d33d 658d 36bc dc74 17bd
00000290: 4afb 343d 6a51 3d3d 66a5 6f3c 88d7 893d
000002a0: 9d79 d73c 3ea7 ad3d 7a9e 3c3d 714a 123e
000002b0: e707 093d 3e72 143e 7d7c 1a3d 2f42 7ebb
000002c0: 6c43 84bd df47 5dbc 671c 583d c15f f13d
000002d0: 8451 0ebc 7446 5ebb 3b42 b83d b8ee dd3d
000002e0: cf0e 14bb e00b bfbd 1272 6ebd 6ac2 25be
000002f0: 1675 35bd 27a9 a7bd 2ccd 6e3d f0cc 603c
00000300: 5207 0c3d 8c11 af3b 9228 073d c933 e93b
00000310: af3b 01bc 3259 183e 605b 0a3d d982 debd
00000320: 4ac1 30be 98da 8d3e 2a93 4d3d cea1 eabc
00000330: 79fb 00bf 8d54 353e b5df b8bd c6c8 823d
00000340: 5ac0 33bd 2306 ad3c 36a0 c8bc 22f3 883c
00000350: 0ba5 d03c af5b 17bf ffaa e23d 28ca 3e3e
00000360: 66ae 843d e674 9c3d 332f 9ebd 5133 c03e
00000370: ce8f 32be a22f 57bd 3237 853e bec5 55bd
00000380: dd62 91be 0d44 70bd 78b9 a9bc 733b b43e
00000390: bcc3 233c acc1 853d cacb 46bd 58ec 9c3b
000003a0: b758 06be 4c4a 60be 268a 963e ef84 cc3c
000003b0: eed8 793b 3be1 fb3d 64e1 c23d f40e b7be
000003c0: cd63 4f3e 5d60 093e 85f6 783b a9c7 2e3c
000003d0: 6f5f b6be 1fd1 2c3e b7f7 093e 2304 c2bd
000003e0: 9aa2 c13d 4386 e2bd ffe4 1c3e b67c d13d
000003f0: e284 93bd 35a6 08be 2ee1 39be 9e0c e8bd

bias_hh f4 [288]
0.00022060065 0.076681934 -0.08739816 0.12238214 -0.021981686 0.013312233 0.07716661 0.0030539492
0.08072041 0.07745533 0.09027926 -0.0011602468 0.22255681 0.062866785 -0.054422718 -0.024620816
0.046372745 0.09194123 0.071934275 -0.07800346 -0.09579781 -0.022045458 0.017852403 -0.021911925
0.06185365 0.014607191 0.0146412 -0.02542865 0.02314676 -0.032840747 0.13624962 -0.083136156
0.0018707565 -0.034074668 0.044504948 -0.017886136 0.08262372 -0.06104939 0.08927362 -0.053235356
0.033043064 -0.05995553 0.013272134 0.04295524 -0.054571528 0.06552847 0.09397054 0.058159914
-0.001814356 -0.061602104 -0.051326297 0.015236591 0.08346609 0.083423585 -0.021745136 -0.019513015
0.0770017 -0.08819119 -0.097482726 0.108083755 0.08689568 -0.05345113 0.014664948 0.08716538
0.02712937 -0.07389172 0.082065366 0.106118634 0.073444754 0.02733875 0.013577087 0.09369705
0.057746578 -0.054031506 0.060224116 0.038985536 -0.020383466 0.011814015 -0.006281821 -0.03769536
-0.05709343 0.099425286 0.10316112 0.065453015 0.1107691 -0.09657373 -0.08700752 0.039520618
-0.0045819464 0.08147394 0.10566454 0.092069365 0.04886067 -0.058271386 -0.06468666 0.12616445
0.10771696 -0.03992193 0.037805483 0.087796636 -0.018664328 0.036182385 -0.019633206 0.015638936
0.108323626 -0.03474329 -0.022254834 -0.015937824 -0.18904597 0.08952451 -0.01495194 -0.03186755
-0.09668302 -0.048705112 -0.114503264 0.058695227 0.075278096 0.08003845 5.423763e-05 0.057509348
-0.06544579 -0.018956643 0.1142417 -0.13158326 -0.060040932 -0.118838705 0.48456198 0.023449138
-0.10810717 -0.007368953 0.1345332 0.0046283454 0.10853477 0.110634886 -0.090115756 -0.02265026
0.034819223 0.005281437 -0.018299496 -0.07196446 0.074085504 0.030622043 0.09215408 0.08761433
0.111448534 0.019549508 -0.04877002 0.06443024 -0.0005721367 -0.05191629 0.18997426 0.091958806
0.05252516 0.11924016 -0.10010882 0.03475245 -0.0047909636 -0.035287477 0.14359146 -0.029843895
0.16839427 0.0470105 0.0051614465 -0.11185544 -0.048231438 0.08590705 0.11836924 0.122081965
0.14496103 -0.07360389 0.09051368 0.27578458 0.0094999075 0.082159534 0.11327585 -0.0633352
-0.07098845 0.0117638735 0.031287357 0.044780653 -0.03806716 -0.07400049 0.03323027 0.09601359
-0.12500052 -0.033314794 0.014671022 -0.07656806 0.009489736 -0.115977935 0.095003635 0.09385217
-0.067087635 0.060214113 0.14088285 0.07991999 0.044433117 0.18582024 -0.040977668 -0.19792427
-0.001172776 0.16414072 0.12444858 -0.010513381 -0.23489739 -0.036573023 0.07589513 -0.0075657587
-0.10604239 0.068038985 -0.033943057 -0.07073479 0.0022707337 -0.22862445 -0.009141311 0.14071937
0.08165828 0.085314766 -0.045019288 0.19469522 -0.08932943 -0.13469337 0.07861814 -0.062002294
-0.0904154 0.047206923 0.062642634 0.22622712 0.07358532 0.10486253 -0.0706226 -0.098898485
-0.081388906 -0.028945487 0.1628064 0.043457456 -0.019464448 -0.019163692 0.07501463 -0.15825063
0.07202485 0.07107979 0.054425456 0.050052866 -0.123642474 0.06455306 0.12653227 -0.06591689
-0.049335774 0.069635905 0.0033029271 0.09937718 -0.14904188 -0.01872789 0.029614147 -0.12333201
00000000: 0951 6739 6b0b 9d3d cefd b2bd 7da3 fa3d
00000010: f012 b4bc 8d1b 5a3c 8709 9e3d c424 483b
00000020: be50 a53d e6a0 9e3d 55e4 b83d 6c13 98ba
00000030: efe5 633e 4dc0 803d 5bea 5ebd 98b1 c9bc
00000040: 59f1 3d3d af4b bc3d 4752 933d 47c0 9fbd
00000050: a431 c4bd ad98 b4bc 343f 923c a380 b3bc
00000060: 415a 7d3d 0053 6f3c a5e1 6f3c bf4f d0bc
00000070: 469e bd3c 0584 06bd 0585 0b3e 4a43 aabd
00000080: 2c34 f53a e191 0bbd d24a 363d f285 92bc
00000090: a036 a93d ed0e 7abd 16d5 b63d 510d 5abd
000000a0: 2a58 073d ee93 75bd 5d73 593c d5f1 2f3d
000000b0: 6586 5fbd ca33 863d a073 c03d 1739 6e3d
000000c0: afcf edba 7d52 7cbd 863b 52bd e5a2 793c
000000d0: 45f0 aa3d fcd9 aa3d db22 b2bc c2d9 9fbc
000000e0: 11b3 9d3d 959d b4bd 06a5 c7bd 045b dd3d
000000f0: 5df6 b13d 92ef 5abd 4045 703c c383 b23d
00000100: 6a3e de3c 8b54 97bd e311 a83d ba54 d93d
00000110: 346a 963d 84f5 df3c 6e72 5e3c 3de4 bf3d
00000120: ad87 6c3d 2450 5dbd 90ad 763d 4caf 1f3d
00000130: 3afb a6bc 928f 413c bcd7 cdbb 7366 1abd
00000140: cdda 69bd 7c9f cb3d 2346 d33d 3b0c 863d
00000150: e9da e23d 73c8 c5bd 0031 b2bd 5fe0 213d
00000160: 2724 96bb cfdb a63d a666 d83d dd8e bc3d
00000170: 2022 483d faad 6ebd 717a 84bd 4131 013e
00000180: b69a dc3d 2d85 23bd ecd9 1a3d b9ce b33d
00000190: efe5 98bc fb33 143d d1d5 a0bc 3a1d 803c
000001a0: c7d8 dd3d fb4e 0ebd c54f b6bc 0a90 82bc
000001b0: 4495 41be a058 b73d fbf8 74bc 8c87 02bd
000001c0: bf01 c6bd 037f 47bd b080 eabd 686a 703d
000001d0: 672b 9a3d 33eb a33d 367d 6338 ec8e 6b3d
000001e0: 7108 86bd f64a 9bbc 8df7 e93d c3bd 06be
000001f0: 7bed 75bd b561 f3bd 8218 f83e 6818 c03c
00000200: 4b67 ddbd 4277 f1bb 12c3 093e 60a9 973b
00000210: 7a47 de3d 8b94 e23d 9c8e b8bd 0a8d b9bc
00000220: 9a9e 0e3d e80f ad3b d3e8 95bc 1a62 93bd
00000230: 24ba 973d 14db fa3c 47bb bc3d 246f b33d
00000240: 213f e43d 4a26 a03c 13c3 47bd 00f4 833d
00000250: 72fb 15ba 2da6 54bd 9d88 423e e654 bc3d
00000260: 9f24 573d 2f34 f43d da05 cdbd 9658 0e3d
00000270: 84fd 9cbb 9a89 10bd a409 133e 2f7b f4bc
00000280: 8c6f 2c3e 158e 403d 5a21 a93b 7714 e5bd
00000290: 548e 45bd 09f0 af3d 926b f23d 1c06 fa3d
000002a0: aa70 143e a3bd 96bd 3c5f b93d a333 8d3e
000002b0: 80a5 1b3c 4243 a83d 2bfd e73d e3b5 81bd
000002c0: 6462 91bd 43bd 403c 2c27 003d eb6b 373d
000002d0: 4fec 1bbd 928d 97bd 771c 083d c6a2 c43d
000002e0: 2300 00be 1875 08bd ba5e 703c b7cf 9cbd
000002f0: d67a 1b3c d785 edbd 4491 c23d 9135 c03d
00000300: 3e65 89bd 13a3 763d 9843 103e 17ad a33d
00000310: 80ff 353d a947 3e3e 33d8 27bd a9ac 4abe
00000320: d5b7 99ba 8114 283e e6de fe3d 5140 2cbc
00000330: f188 70be 98cd 15bd e86e 9b3d 2fea f7bb
00000340: c12c d9bd 0658 8b3d e007 0bbd 67dd 90bd
00000350: 97d0 143b 871c 6abe 70c5 15bc bd18 103e
00000360: 753c a73d 82b9 ae3d 2566 38bd 2f5e 473e
00000370: 59f2 b6bd 0fed 09be 8c02 a13d 1ef6 7dbd
00000380: b62b b9bd 0c5c 413d c84a 803d 15a8 673e
00000390: e6b3 963d 2bc2 d63d 95a2 90bd 4a8b cabd
000003a0: 3aaf a6bd 161f edbc b9b6 263e 7200 323d
000003b0: e873 9fbc 2dfd 9cbc 45a1 993d 740c 22be
000003c0: c481 933d 4892 913d 3aed 5e3d 3c04 4d3d
000003d0: 4438 fdbd 6534 843d ad91 013e 6fff 86bd
000003e0: 4f14 4abd 459d 8e3d ec75 583b 4386 cb3d
000003f0: 6f9e 18be 3b6b 99bc 5e99 f23c 7e95 fcbd

weight f4 [96, 192]
0.0074647255 -0.0004733555 -0.058664147 0.027704503 0.04893319 -0.03742936 -0.06527248 0.010419141
0.07507248 -0.016438184 -0.00092093163 -0.032471485 -0.06837247 -0.036180556 0.037567507 0.019180875
-0.028868763 -0.02702494 0.07024711 -0.038886834 -0.035404388 -0.017075602 -0.06628052 0.038830653
0.01548971 0.026019786 0.05466978 -0.05670581 -0.031506553 0.005011969 0.012708863 0.061674133
0.05009068 -0.020927692 0.014965964 -0.06785304 -0.042172298 0.015887428 -0.019775717 0.05063848
0.0017296522 0.022331402 0.029617617 0.06660537 0.004810191 -0.070190996 -0.046567198 -0.039377738
-0.045008816 0.059448626 -0.052504804 0.026772825 -0.022718001 0.070818216 0.071228296 0.010236784
-0.070379026 0.030921433 -0.04582917 0.024535237 0.06128352 -0.027044235 0.034331344 -0.019827247
-0.026658006 0.055052817 0.025879415 -0.040014796 0.016319122 0.04318036 -0.045236696 0.03229387
0.00047052815 0.0024025175 -0.03514228 0.007949853 -0.029338378 0.013363656 -0.05369296 0.030363075
0.024327334 -0.05202092 -0.0081964545 -0.06282886 -0.047257703 -0.066073686 -0.008168316 0.01544828
0.0062715337 0.003247489 0.013788124 -0.005158015 -0.03911963 0.067982875 -0.002276524 0.029750071
0.061609864 -0.00029147541 -0.036531612 0.0126349125 0.0018603856 -0.01363137 -0.046149395 0.047163676
-0.05806554 0.0764007 0.035575848 -0.057219196 0.05151415 0.071021385 0.05415987 0.031684443
-0.002439895 0.03138567 0.031213284 -0.04900802 -0.010290633 -0.030803232 -0.019876854 -0.043096688
-0.042615056 -0.018938987 -0.025112519 -0.04025341 -0.019368872 -0.03617439 0.04158917 -0.015079799
0.06864887 0.024742974 -0.015969343 0.022037247 0.013978324 0.048328757 -0.00597421 0.035990693
0.028240968 -0.029983856 -0.066558726 -0.03546736 -0.031875994 0.048480656 0.05548617 -0.06527444
0.06781233 -0.008080057 0.01649806 0.033909645 -0.048750523 -0.028478814 -0.031513106 0.006601904
0.027531253 0.031836327 -0.0056003453 0.031733394 0.0299389 0.05339185 -0.04922761 0.008543466
0.05039844 -0.032839525 -0.035886366 0.038035832 0.049027648 -0.018186552 -0.01611208 -0.009735953
0.0148454765 -0.034981765 0.018726941 0.019212866 0.005306795 -0.05708575 -0.016390357 -0.050566886
0.047089346 -0.047250345 0.037848163 -0.0037521913 0.042176574 -0.07222167 0.05756589 -0.07382837
0.00058549474 -0.035139997 -0.03292094 0.0062181274 0.009755597 -0.04195568 0.064332835 0.03735429
0.06257202 -0.0014724387 0.04204465 -0.0161742 0.06434906 -0.016542317 -0.017283022 -0.038141243
-0.003776452 0.059547618 0.046635613 0.031258978 0.030941028 -0.0041509354 -0.0057930048 -0.063150816
0.061094068 -0.038705073 -0.057920966 -0.06833659 0.030715445 0.024523284 -0.028791843 -0.02606707
0.040476583 -0.029746419 0.0073235384 0.03205833 -0.013223817 0.003069377 -0.012097736 -0.062899314
0.029972639 0.01589315 -0.02841302 -0.014455612 0.0031693534 -0.05105515 0.036499273 -0.06729678
-0.04374421 -0.004488802 0.068744056 -0.036182337 0.047428563 -0.07112406 0.076261304 0.013283245
-0.026970405 -0.06301851 0.060943533 -0.039610624 0.05119274 0.06174295 0.038369246 0.001590193
0.050267164 -0.003335771 0.030739496 -0.056234084 -0.06398652 -0.0025512946 0.07540793 -0.0515257
00000000: a89a f43b b32c f8b9 d149 70bd 8ef4 e23c
00000010: 2b6e 483d 874f 19bd 94ad 85bd 0bb5 2a3c
00000020: 9abf 993d 5fa9 86bc ad6a 71ba d200 05bd
00000030: de06 8cbd 1032 14bd 63e0 193d 3621 9d3c
00000040: 2f7e ecbc 6863 ddbc b8dd 8f3d cd47 1fbd
00000050: 3104 11bd 22e2 8bbc 15be 87bd e40c 1f3d
00000060: 8dc8 7d3c 7227 d53c 6bed 5f3d 5a44 68bd
00000070: 040d 01bd 713b a43b d638 503c 049e 7c3d
00000080: e32b 4d3d 8d70 abbc cd33 753c 89f6 8abd
00000090: dcbc 2cbd 5a26 823c af00 a2bc 4b6a 4f3d
000000a0: 7fb5 e23a 58f0 b63c a5a0 f23c 6568 883d
000000b0: cf9e 9d3b 4cc0 8fbd 3fbd 3ebd 8d4a 21bd
000000c0: 2a5b 38bd 6780 733d 470f 57bd af52 db3c
000000d0: 1a1b babc 2409 913d 24e0 913d 2fb8 273c
000000e0: e122 90bd f24e fd3c 5eb7 3bbd 1ffe c83c
000000f0: 6e04 7b3d df8b ddbc 069f 0c3d c06c a2bc
00000100: e461 dabc 107f 613d 1101 d43c 8ee6 23bd
00000110: aeaf 853c e4dd 303d 1d4a 39bd 9446 043d
00000120: 38b1 f639 8e73 1d3b 5af1 0fbd 1a40 023c
00000130: 0a57 f0bc 3cf3 5a3c 26ed 5bbd fcbb f83c
00000140: 1e4a c73c e313 55bd 6c4a 06bc 6bac 80bd
00000150: 4b91 41bd a451 87bd 67d4 05bc c81a 7d3c
00000160: 7081 cd3b d3d3 543b 95e7 613c 9104 a9bb
00000170: e83b 20bd 9b3a 8b3d bc31 15bb 6cb6 f33c
00000180: a05a 7c3d 2bd1 98b9 2ca2 15bd aa02 4f3c
00000190: 2fd8 f33a 1c56 5fbc 2607 3dbd b32e 413d
000001a0: 22d6 6dbd f877 9c3d fbb7 113d ad5e 6abd
000001b0: 8000 533d a973 913d bdd6 5d3d 8cc7 013d
000001c0: a5e6 1fbb 438e 003d 00b3 ff3c a2bc 48bd
000001d0: 0b9a 28bc 0f57 fcbc c9d4 a2bc 2786 30bd
000001e0: 208d 2ebd ef25 9bbc c5b8 cdbc c2e0 24bd
000001f0: 78ab 9ebc 992b 14bd 6859 2a3d 4311 77bc
00000200: c797 8c3d c7b1 ca3c 24d2 82bc 7587 b43c
00000210: 5705 653c 60f4 453d 4ec3 c3bb fa6a 133d
00000220: 9a59 e73c b4a0 f5bc f14f 88bd 3946 11bd
00000230: 6790 02bd a793 463d 7745 633d 9bae 85bd
00000240: 31e1 8a3d 3762 04bc f126 873c d7e4 0a3d
00000250: a1ae 47bd 674c e9bc e313 01bd c954 d83b
00000260: 3989 e13c cf66 023d 1a83 b7bb e0fa 013d
00000270: 6d42 f53c 6ab1 5a3d e4a2 49bd e5f9 0b3c
00000280: 986e 4e3d bd82 06bd 95fd 12bd 76cb 1b3d
00000290: 37d1 483d f7fb 94bc 7bfd 83bc 8c83 1fbc
000002a0: 713a 733c 0a49 0fbd 3e69 993c 4d64 9d3c
000002b0: 9fe4 ad3b bfd2 69bd 1245 86bc 391f 4fbd
000002c0: c2e0 403d 9489 41bd ad06 1b3d 53e7 75bb
000002d0: 58c1 2c3d f4e8 93bd 36ca 6b3d 5433 97bd
000002e0: e37b 193a f5ee 0fbd 1cd8 06bd 6fc1 cb3b
000002f0: f1d5 1f3c b8d9 2bbd efc0 833d d000 193d
00000300: c225 803d d8fe c0ba 0337 2c3d c27f 84bc
00000310: 71c9 833d c183 87bc 2095 8dbc fe39 1cbd
00000320: 5a7e 77bb 34e8 733d fc04 3f3d 6a09 003d
00000330: 0a78 fd3c 9204 88bb 3fd3 bdbb 3755 81bd
00000340: c63d 7a3d 3689 1ebd 893e 6dbd 0ef4 8bbd
00000350: f59e fb3c 0ee5 c83c dfdc ebbc 9c8a d5bc
00000360: c6ca 253d c3ae f3bc 4bfa ef3b 984f 033d
00000370: b5a8 58bc 9a27 493b 9535 46bc 5bd1 80bd
00000380: 2e89 f53c 5a32 823c 6cc2 e8bc 3bd7 6cbc
00000390: edb4 4f3b 341f 51bd 4380 153d e5d2 89bd
000003a0: 212d 33bd cd16 93bb afc9 8c3d ee33 14bd
000003b0: 7444 423d 7ea9 91bd e32e 9c3d f8a1 593c
000003c0: 0af1 dcbc d90f 81bd ed9f 793d c03e 22bd
000003d0: 7baf 513d 2de6 7c3d 1229 1d3d 066e d03a
000003e0: f1e4 4d3d f39c 5abb 65d1 fb3c b655 66bd
000003f0: 5d0b 83bd 9f33 27bb 796f 9a3d 9d0c 53bd

bias f4 [96]
-0.0027878322 -0.035061162 0.044741698 -0.043792665 0.06340299 -0.069341876 0.03429085 -0.073033266
-0.004867309 0.021277435 -0.013225133 0.031375725 0.009779383 -0.06079374 0.04866555 0.042154662
0.033304267 0.007845819 -0.014155445 -0.06954633 -0.03890749 0.008792156 -0.0704406 -0.020295234
-0.006026788 0.027394222 0.03885082 0.05159918 -0.026490977 -0.03557591 0.0117830075 -0.05832003
-0.060125418 -0.050790492 0.057922818 -0.013213758 -0.022693139 0.06799176 -0.019420702 -0.042788703
0.049861528 0.05861896 0.0058169444 -0.04197674 0.006634203 -0.0210775 -0.06217122 -0.05960777
-0.02696821 0.06519662 -0.045407698 0.0089027295 0.050092813 0.025152018 0.026868157 -0.0139809325
-0.07170228 0.0681407 0.015917273 -0.028058004 -0.039677363 0.06386905 0.02488989 0.046314888
-0.0068160254 0.03179764 0.06628777 -0.0005338507 -0.045807797 0.022510381 0.051950585 0.03610439
0.043172516 0.0012217729 -0.052340075 -0.05997041 0.0021000493 -0.057063106 0.017905392 0.06815694
-0.014241704 -0.0022800963 0.049661275 0.04321593 0.0055758674 0.03876807 0.025403107 -0.020247478
0.04691267 0.038705785 -0.052353412 -0.0016156725 -0.011762756 0.05915387 -0.012869127 0.05503901
00000000: 10b4 36bb 4b9c 0fbd 1243 373d f05f 33bd
00000010: 6dd9 813d 1d03 8ebd 9074 0c3d 7792 95bd
00000020: f27d 9fbb 044e ae3c 3aae 58bc d583 003d
00000030: b539 203c db02 79bd 8755 473d 5eaa 2c3d
00000040: 0e6a 083d c08b 003c 3dec 67bc 4e6e 8ebd
00000050: 765d 1fbd fa0c 103c 2943 90bd 3142 a6bc
00000060: 5d7c c5bb d969 e03c 0a22 1f3d a959 533d
00000070: 9b03 d9bc 0cb8 11bd 840d 413c fce0 6ebd
00000080: 1246 76bd b109 50bd 7a40 6d3d 857e 58bc
00000090: f6e6 b9bc 443f 8b3d 2a18 9fbc 3543 2fbd
000000a0: 9a3b 4c3d 6f1a 703d 119c be3b cdef 2bbd
000000b0: ba63 d93b b9aa acbc 40a7 7ebd 4727 74bd
000000c0: 6fec dcbc ce85 853d 6cfd 39bd c1dc 113c
000000d0: 1f2e 4d3d 9b0b ce3c 9c1a dc3c 4810 65bc
000000e0: a5d8 92bd 5a8d 8b3d f164 823c e6d9 e5bc
000000f0: bb84 22bd c7cd 823d e2e5 cb3c aeb4 3d3d
00000100: f758 dfbb 3e3e 023d e2c1 873d 1df2 0bba
00000110: f5a0 3bbd b167 b83c 23ca 543d 32e2 133d
00000120: aad5 303d e523 a03a 8c62 56bd 88a3 75bd
00000130: fba0 093b 01bb 69bd 54ae 923c de95 8b3d
00000140: 0956 69bc ab6d 15bb 9f69 4b3d 3003 313d
00000150: c4b5 b63b 45cb 1e3d 2d1a d03c 0ade a5bc
00000160: 8027 403d f589 1e3d 8870 56bd f9c4 d3ba
00000170: 93b8 40bc 544b 723d 08d9 52bc 9670 613d
